…
INFO:torch.distributed.elastic.multiprocessing:Setting worker0 reply file to: /tmp/torchelastic_sbvrj_2d/0fc1c011-6177-4432-81d5-64d7b5fbf5c0_9d_jfs8_/attempt_0/0/error.json
Namespace(checkpoint=None, cmvn_file=None, config='conf/mdtc.yaml', cv_data='data/valid/data.list', dist_backend='nccl', gpus='0', min_duration=50, model_dir='exp/mdtc', noise_lmdb=None, norm_var=False, num_keywords=11, num_workers=8, pin_memory=False, prefetch=100, reverb_lmdb=None, seed=777, tensorboard_dir='tensorboard', train_data='data/train/data.list')
Receptive Fields: 244
KWSModel(
  (preprocessing): LinearSubsampling1(
    (out): Sequential(
      (0): Linear(in_features=80, out_features=64, bias=True)
      (1): ReLU()
    )
    (quant): QuantStub()
    (dequant): DeQuantStub()
  )
  (backbone): MDTC(
    (preprocessor): TCNBlock(
      (conv1): DSDilatedConv1d(
        (conv): Conv1d(64, 64, kernel_size=(5,), stride=(1,), groups=64)
        (bn): BatchNorm1d(64, eps=1e-05, momentum=0.1, affine=True, track_running_stats=True)
        (pointwise): Conv1d(64, 64, kernel_size=(1,), stride=(1,))
      )
      (bn1): BatchNorm1d(64, eps=1e-05, momentum=0.1, affine=True, track_running_stats=True)
      (relu1): ReLU()
      (conv2): Conv1d(64, 64, kernel_size=(1,), stride=(1,))
      (bn2): BatchNorm1d(64, eps=1e-05, momentum=0.1, affine=True, track_running_stats=True)
      (relu2): ReLU()
    )
    (relu): ReLU()
    (blocks): ModuleList(
      (0): TCNStack(
        (res_blocks): ModuleList(
          (0): TCNBlock(
            (conv1): DSDilatedConv1d(
              (conv): Conv1d(64, 64, kernel_size=(5,), stride=(1,), groups=64)
              (bn): BatchNorm1d(64, eps=1e-05, momentum=0.1, affine=True, track_running_stats=True)
              (pointwise): Conv1d(64, 64, kernel_size=(1,), stride=(1,))
            )
            (bn1): BatchNorm1d(64, eps=1e-05, momentum=0.1, affine=True, track_running_stats=True)
            (relu1): ReLU()
            (conv2): Conv1d(64, 64, kernel_size=(1,), stride=(1,))
            (bn2): BatchNorm1d(64, eps=1e-05, momentum=0.1, affine=True, track_running_stats=True)
            (relu2): ReLU()
          )
          (1): TCNBlock(
            (conv1): DSDilatedConv1d(
              (conv): Conv1d(64, 64, kernel_size=(5,), stride=(1,), dilation=(2,), groups=64)
              (bn): BatchNorm1d(64, eps=1e-05, momentum=0.1, affine=True, track_running_stats=True)
              (pointwise): Conv1d(64, 64, kernel_size=(1,), stride=(1,))
            )
            (bn1): BatchNorm1d(64, eps=1e-05, momentum=0.1, affine=True, track_running_stats=True)
            (relu1): ReLU()
            (conv2): Conv1d(64, 64, kernel_size=(1,), stride=(1,))
            (bn2): BatchNorm1d(64, eps=1e-05, momentum=0.1, affine=True, track_running_stats=True)
            (relu2): ReLU()
          )
          (2): TCNBlock(
            (conv1): DSDilatedConv1d(
              (conv): Conv1d(64, 64, kernel_size=(5,), stride=(1,), dilation=(4,), groups=64)
              (bn): BatchNorm1d(64, eps=1e-05, momentum=0.1, affine=True, track_running_stats=True)
              (pointwise): Conv1d(64, 64, kernel_size=(1,), stride=(1,))
            )
            (bn1): BatchNorm1d(64, eps=1e-05, momentum=0.1, affine=True, track_running_stats=True)
            (relu1): ReLU()
            (conv2): Conv1d(64, 64, kernel_size=(1,), stride=(1,))
            (bn2): BatchNorm1d(64, eps=1e-05, momentum=0.1, affine=True, track_running_stats=True)
            (relu2): ReLU()
          )
          (3): TCNBlock(
            (conv1): DSDilatedConv1d(
              (conv): Conv1d(64, 64, kernel_size=(5,), stride=(1,), dilation=(8,), groups=64)
              (bn): BatchNorm1d(64, eps=1e-05, momentum=0.1, affine=True, track_running_stats=True)
              (pointwise): Conv1d(64, 64, kernel_size=(1,), stride=(1,))
            )
            (bn1): BatchNorm1d(64, eps=1e-05, momentum=0.1, affine=True, track_running_stats=True)
            (relu1): ReLU()
            (conv2): Conv1d(64, 64, kernel_size=(1,), stride=(1,))
            (bn2): BatchNorm1d(64, eps=1e-05, momentum=0.1, affine=True, track_running_stats=True)
            (relu2): ReLU()
          )
        )
      )
      (1): TCNStack(
        (res_blocks): ModuleList(
          (0): TCNBlock(
            (conv1): DSDilatedConv1d(
              (conv): Conv1d(64, 64, kernel_size=(5,), stride=(1,), groups=64)
              (bn): BatchNorm1d(64, eps=1e-05, momentum=0.1, affine=True, track_running_stats=True)
              (pointwise): Conv1d(64, 64, kernel_size=(1,), stride=(1,))
            )
            (bn1): BatchNorm1d(64, eps=1e-05, momentum=0.1, affine=True, track_running_stats=True)
            (relu1): ReLU()
            (conv2): Conv1d(64, 64, kernel_size=(1,), stride=(1,))
            (bn2): BatchNorm1d(64, eps=1e-05, momentum=0.1, affine=True, track_running_stats=True)
            (relu2): ReLU()
          )
          (1): TCNBlock(
            (conv1): DSDilatedConv1d(
              (conv): Conv1d(64, 64, kernel_size=(5,), stride=(1,), dilation=(2,), groups=64)
              (bn): BatchNorm1d(64, eps=1e-05, momentum=0.1, affine=True, track_running_stats=True)
              (pointwise): Conv1d(64, 64, kernel_size=(1,), stride=(1,))
            )
            (bn1): BatchNorm1d(64, eps=1e-05, momentum=0.1, affine=True, track_running_stats=True)
            (relu1): ReLU()
            (conv2): Conv1d(64, 64, kernel_size=(1,), stride=(1,))
            (bn2): BatchNorm1d(64, eps=1e-05, momentum=0.1, affine=True, track_running_stats=True)
            (relu2): ReLU()
          )
          (2): TCNBlock(
            (conv1): DSDilatedConv1d(
              (conv): Conv1d(64, 64, kernel_size=(5,), stride=(1,), dilation=(4,), groups=64)
              (bn): BatchNorm1d(64, eps=1e-05, momentum=0.1, affine=True, track_running_stats=True)
              (pointwise): Conv1d(64, 64, kernel_size=(1,), stride=(1,))
            )
            (bn1): BatchNorm1d(64, eps=1e-05, momentum=0.1, affine=True, track_running_stats=True)
            (relu1): ReLU()
            (conv2): Conv1d(64, 64, kernel_size=(1,), stride=(1,))
            (bn2): BatchNorm1d(64, eps=1e-05, momentum=0.1, affine=True, track_running_stats=True)
            (relu2): ReLU()
          )
          (3): TCNBlock(
            (conv1): DSDilatedConv1d(
              (conv): Conv1d(64, 64, kernel_size=(5,), stride=(1,), dilation=(8,), groups=64)
              (bn): BatchNorm1d(64, eps=1e-05, momentum=0.1, affine=True, track_running_stats=True)
              (pointwise): Conv1d(64, 64, kernel_size=(1,), stride=(1,))
            )
            (bn1): BatchNorm1d(64, eps=1e-05, momentum=0.1, affine=True, track_running_stats=True)
            (relu1): ReLU()
            (conv2): Conv1d(64, 64, kernel_size=(1,), stride=(1,))
            (bn2): BatchNorm1d(64, eps=1e-05, momentum=0.1, affine=True, track_running_stats=True)
            (relu2): ReLU()
          )
        )
      )
      (2): TCNStack(
        (res_blocks): ModuleList(
          (0): TCNBlock(
            (conv1): DSDilatedConv1d(
              (conv): Conv1d(64, 64, kernel_size=(5,), stride=(1,), groups=64)
              (bn): BatchNorm1d(64, eps=1e-05, momentum=0.1, affine=True, track_running_stats=True)
              (pointwise): Conv1d(64, 64, kernel_size=(1,), stride=(1,))
            )
            (bn1): BatchNorm1d(64, eps=1e-05, momentum=0.1, affine=True, track_running_stats=True)
            (relu1): ReLU()
            (conv2): Conv1d(64, 64, kernel_size=(1,), stride=(1,))
            (bn2): BatchNorm1d(64, eps=1e-05, momentum=0.1, affine=True, track_running_stats=True)
            (relu2): ReLU()
          )
          (1): TCNBlock(
            (conv1): DSDilatedConv1d(
              (conv): Conv1d(64, 64, kernel_size=(5,), stride=(1,), dilation=(2,), groups=64)
              (bn): BatchNorm1d(64, eps=1e-05, momentum=0.1, affine=True, track_running_stats=True)
              (pointwise): Conv1d(64, 64, kernel_size=(1,), stride=(1,))
            )
            (bn1): BatchNorm1d(64, eps=1e-05, momentum=0.1, affine=True, track_running_stats=True)
            (relu1): ReLU()
            (conv2): Conv1d(64, 64, kernel_size=(1,), stride=(1,))
            (bn2): BatchNorm1d(64, eps=1e-05, momentum=0.1, affine=True, track_running_stats=True)
            (relu2): ReLU()
          )
          (2): TCNBlock(
            (conv1): DSDilatedConv1d(
              (conv): Conv1d(64, 64, kernel_size=(5,), stride=(1,), dilation=(4,), groups=64)
              (bn): BatchNorm1d(64, eps=1e-05, momentum=0.1, affine=True, track_running_stats=True)
              (pointwise): Conv1d(64, 64, kernel_size=(1,), stride=(1,))
            )
            (bn1): BatchNorm1d(64, eps=1e-05, momentum=0.1, affine=True, track_running_stats=True)
            (relu1): ReLU()
            (conv2): Conv1d(64, 64, kernel_size=(1,), stride=(1,))
            (bn2): BatchNorm1d(64, eps=1e-05, momentum=0.1, affine=True, track_running_stats=True)
            (relu2): ReLU()
          )
          (3): TCNBlock(
            (conv1): DSDilatedConv1d(
              (conv): Conv1d(64, 64, kernel_size=(5,), stride=(1,), dilation=(8,), groups=64)
              (bn): BatchNorm1d(64, eps=1e-05, momentum=0.1, affine=True, track_running_stats=True)
              (pointwise): Conv1d(64, 64, kernel_size=(1,), stride=(1,))
            )
            (bn1): BatchNorm1d(64, eps=1e-05, momentum=0.1, affine=True, track_running_stats=True)
            (relu1): ReLU()
            (conv2): Conv1d(64, 64, kernel_size=(1,), stride=(1,))
            (bn2): BatchNorm1d(64, eps=1e-05, momentum=0.1, affine=True, track_running_stats=True)
            (relu2): ReLU()
          )
        )
      )
      (3): TCNStack(
        (res_blocks): ModuleList(
          (0): TCNBlock(
            (conv1): DSDilatedConv1d(
              (conv): Conv1d(64, 64, kernel_size=(5,), stride=(1,), groups=64)
              (bn): BatchNorm1d(64, eps=1e-05, momentum=0.1, affine=True, track_running_stats=True)
              (pointwise): Conv1d(64, 64, kernel_size=(1,), stride=(1,))
            )
            (bn1): BatchNorm1d(64, eps=1e-05, momentum=0.1, affine=True, track_running_stats=True)
            (relu1): ReLU()
            (conv2): Conv1d(64, 64, kernel_size=(1,), stride=(1,))
            (bn2): BatchNorm1d(64, eps=1e-05, momentum=0.1, affine=True, track_running_stats=True)
            (relu2): ReLU()
          )
          (1): TCNBlock(
            (conv1): DSDilatedConv1d(
              (conv): Conv1d(64, 64, kernel_size=(5,), stride=(1,), dilation=(2,), groups=64)
              (bn): BatchNorm1d(64, eps=1e-05, momentum=0.1, affine=True, track_running_stats=True)
              (pointwise): Conv1d(64, 64, kernel_size=(1,), stride=(1,))
            )
            (bn1): BatchNorm1d(64, eps=1e-05, momentum=0.1, affine=True, track_running_stats=True)
            (relu1): ReLU()
            (conv2): Conv1d(64, 64, kernel_size=(1,), stride=(1,))
            (bn2): BatchNorm1d(64, eps=1e-05, momentum=0.1, affine=True, track_running_stats=True)
            (relu2): ReLU()
          )
          (2): TCNBlock(
            (conv1): DSDilatedConv1d(
              (conv): Conv1d(64, 64, kernel_size=(5,), stride=(1,), dilation=(4,), groups=64)
              (bn): BatchNorm1d(64, eps=1e-05, momentum=0.1, affine=True, track_running_stats=True)
              (pointwise): Conv1d(64, 64, kernel_size=(1,), stride=(1,))
            )
            (bn1): BatchNorm1d(64, eps=1e-05, momentum=0.1, affine=True, track_running_stats=True)
            (relu1): ReLU()
            (conv2): Conv1d(64, 64, kernel_size=(1,), stride=(1,))
            (bn2): BatchNorm1d(64, eps=1e-05, momentum=0.1, affine=True, track_running_stats=True)
            (relu2): ReLU()
          )
          (3): TCNBlock(
            (conv1): DSDilatedConv1d(
              (conv): Conv1d(64, 64, kernel_size=(5,), stride=(1,), dilation=(8,), groups=64)
              (bn): BatchNorm1d(64, eps=1e-05, momentum=0.1, affine=True, track_running_stats=True)
              (pointwise): Conv1d(64, 64, kernel_size=(1,), stride=(1,))
            )
            (bn1): BatchNorm1d(64, eps=1e-05, momentum=0.1, affine=True, track_running_stats=True)
            (relu1): ReLU()
            (conv2): Conv1d(64, 64, kernel_size=(1,), stride=(1,))
            (bn2): BatchNorm1d(64, eps=1e-05, momentum=0.1, affine=True, track_running_stats=True)
            (relu2): ReLU()
          )
        )
      )
    )
  )
  (classifier): GlobalClassifier(
    (classifier): Sequential(
      (0): Linear(in_features=64, out_features=64, bias=True)
      (1): ReLU()
      (2): Dropout(p=0.5, inplace=False)
      (3): Linear(in_features=64, out_features=11, bias=True)
    )
  )
  (activation): Identity()
)
the number of model params: 164555
2023-08-17 14:32:26,081 INFO Checkpoint: save to checkpoint exp/mdtc/init.pt
2023-08-17 14:32:26,106 INFO Epoch 0 TRAIN info lr 0.001
2023-08-17 14:32:30,066 DEBUG TRAIN Batch 0/0 loss 6.13837528 acc 15.00000000
Traceback (most recent call last):
  File "wekws/bin/train.py", line 250, in <module>
…
